nba/NBA_model.pth (torch, 10592 bytes, 3 tensors)

fc1.weight f4 [32, 64]
0	0xbd0dba07	-0.034601238
1	0xbe0a8856	-0.1352857
2	0x3d102a91	0.035196844
3	0xbe0210cd	-0.12701721
4	0xbce99085	-0.028511295
5	0xbe19d598	-0.15022886
6	0xbdd135f7	-0.10215371
7	0x3dbff9d9	0.093738265
8	0xbd7287da	-0.05921159
9	0xbd4364d4	-0.04770358
10	0x3d89364c	0.066998094
11	0x3da08a5b	0.07838889
12	0xbcf4d7ea	-0.029888112
13	0x3ccd696e	0.025074687
14	0x3da761a4	0.0817292
15	0x3d96e36f	0.07367598
16	0xbd8302b2	-0.063969985
17	0xbd034053	-0.032043766
18	0xbdd9d952	-0.10637154
19	0x3dad1f91	0.084532864
20	0x3d11fb54	0.035640076
21	0xbdf5411c	-0.11975309
22	0x3d1094ba	0.035298087
23	0x3c041383	0.008061293
24	0x3d291ada	0.041285373
25	0xbe199e0d	-0.15001698
26	0xbda6fc1e	-0.08153556
27	0x3d1d5ae7	0.03841677
28	0x3cca79ab	0.024716219
29	0x3dab9bd0	0.08379328
30	0x3da11ae9	0.07866461
31	0x3dab83ad	0.083747245
32	0x3d89c8f9	0.067277856
33	0xbe0c1cdb	-0.13682882
34	0xbd9a7ea8	-0.07543689
35	0xbd94a8bf	-0.07258748
36	0xbe169a5e	-0.14707324
37	0x3d4f6509	0.050633464
38	0xbd13cc5e	-0.03608357
39	0x3b3f80f7	0.0029221156
40	0xbcec1edd	-0.02882331
41	0xbbb2d40a	-0.005457406
42	0x3d5675f4	0.052358583
43	0xbc888b58	-0.016668007
44	0xbe182df3	-0.14861278
45	0x3c2e03e3	0.010621044
46	0x3d956c60	0.072960615
47	0x3d931abb	0.07182833
48	0xbd27c38e	-0.04095798
49	0xbe0a4e35	-0.13506396
50	0x3bd3ab66	0.0064596413
51	0x3b53b4f9	0.0032303913
52	0x3d8b62d6	0.06805961
53	0xbdc60b29	-0.096700974
54	0x3d1fbb18	0.038996786
55	0xbda87dad	-0.08227096
56	0xbdafd453	-0.085854195
57	0xba734d56	-0.00092812383
58	0x3dbc7336	0.09201662
59	0xbd333d5c	-0.04375969
60	0xb6b8df98	-5.509657e-06
61	0xbc700869	-0.014650443
62	0x3db95757	0.09049862
63	0x3d102e2b	0.03520028
64	0x3c767aa0	0.0150438845
65	0x3c24fd40	0.010070145
66	0xbd0df68c	-0.034658954
67	0x3d67db94	0.05660589
68	0xbd106eb0	-0.03526181
69	0xbdc7d954	-0.09758249
70	0x3def5980	0.11686993
71	0x3db4ebf2	0.088340655
72	0x3dd062ec	0.10175118
73	0xbd81c632	-0.06336631
74	0xbdf04578	-0.11732
75	0xbc8d86f0	-0.017276257
76	0x3dd89f36	0.10577242
77	0xbdc4d4dc	-0.09610912
78	0x3d6247c4	0.055244222
79	0xbd82e448	-0.063911974
80	0xbc38b5d0	-0.011273816
81	0xbd93600a	-0.07196052
82	0x3dc8ef5e	0.09811281
83	0x3cf7fea8	0.030272797
84	0xbd09b860	-0.0336231
85	0xbd8b64b8	-0.0680632
86	0xb9cc1000	-0.00038921833
87	0x3da45bb0	0.080253005
88	0xbdb0139e	-0.08597492
89	0xbd653868	-0.055961996
90	0xbd0d2b54	-0.03446515
91	0x3d03f960	0.032220244
92	0xbda90df2	-0.08254613
93	0xbd15e1ac	-0.03659217
94	0xbcb4cf88	-0.022071615
95	0x3d1af990	0.037835658
96	0xbdac9ed6	-0.08428733
97	0xbdbf2502	-0.093332306
98	0xbdd3c006	-0.1033936
99	0x3d888dea	0.06667693
100	0x3d75c0cc	0.05999832
101	0x3d9046c4	0.070447475
102	0xbdaf1136	-0.085482046
103	0x3d808518	0.062753856
104	0xbde0acba	-0.10970445
105	0xbcb4b920	-0.02206093
106	0xbdac5180	-0.084139824
107	0xbd93d5c8	-0.0721851
108	0xbde8456a	-0.11341365
109	0xbd9d39c0	-0.076770306
110	0x3ca9fb08	0.020749584
111	0xbc9628e0	-0.018330038
112	0xbdca3e5a	-0.09875174
113	0xbd216254	-0.039400414
114	0xbc841898	-0.016125008
115	0xbdf9fcfe	-0.122064576
116	0xbd467a24	-0.048456326
117	0xbc21e4f0	-0.009881243
118	0x3d5a755c	0.05333458
119	0x3d8bba6e	0.06822668
120	0x3d4b2110	0.049592078
121	0x3d122afc	0.035685524
122	0xbdabe768	-0.083937466
123	0xbd2a55e0	-0.041585803
124	0xbd8656ce	-0.065595254
125	0xbca9c550	-0.020723969
126	0xbbe54ae0	-0.006997451
127	0x3d0defd0	0.03465253
128	0x3f3067ae	0.689082
129	0x3fdaf4b1	1.7105924
130	0x3fa58e89	1.2934123
131	0x3f89f2b6	1.0777194
132	0x3f33b7fa	0.702026
133	0x3ecd0351	0.40041593
134	0x3f0bd795	0.5462583
135	0x3f72751f	0.9470996
136	0x3f47e386	0.7808155
137	0x3ed76772	0.4207111
138	0x3e2a8eb0	0.16655993
139	0x3f115bf3	0.5678093
140	0x3f057fd8	0.521482
141	0x3f4d91ed	0.8030079
142	0x3e3865b7	0.18007551
143	0x3e872480	0.26395035
144	0x3d0a167d	0.033712853
145	0x3e0f7081	0.1400776
146	0x3f69a7d4	0.9127171
147	0x3f839431	1.02796
148	0xbd57c6a8	-0.052679688
149	0x3eb61c47	0.3556845
150	0x3e88bf9b	0.26708683
151	0x3ea823af	0.32839724
152	0x3edc8c42	0.43075758
153	0xbe849a53	-0.2589899
154	0xbc6613cd	-0.014042807
155	0xbd4f5946	-0.050622247
156	0xbed6b1ed	-0.41932622
157	0x3f906553	1.1280922
158	0xbde99964	-0.1140621
159	0x3e959194	0.2921263
160	0x3f117545	0.56819564
161	0x3f72016a	0.9453341
162	0x3ea5b0a8	0.3236134
163	0xbdc7fa17	-0.09764498
164	0x3e8d2423	0.27566633
165	0xbcbf70db	-0.023369243
166	0x3ea89562	0.3292647
167	0x3ed635df	0.41837975
168	0x3e5b22c8	0.21399987
169	0x3df01b9b	0.11724015
170	0x3d9c004d	0.07617245
171	0x3e14264e	0.14467737
172	0x3e3e492e	0.18582603
173	0xbd028407	-0.031864192
174	0x3e5ec3c1	0.21754362
175	0x3edc348b	0.43008837
176	0x3e893c42	0.26803786
177	0x3e189d3b	0.14903729
178	0x3cfb4fdc	0.030677728
179	0x3c49d495	0.01231875
180	0x3daeb5f9	0.08530802
181	0x3d1d5576	0.03841158
182	0x3e8912da	0.26772195
183	0x3d144fa9	0.036208782
184	0xbaaa1be2	-0.001297828
185	0xbe562415	-0.20912202
186	0xbdeb19cd	-0.114795305
187	0x3e918364	0.28420556
188	0xbe81786c	-0.25287187
189	0x3f9f3c2d	1.2440239
190	0x3f258a75	0.64664394
191	0x3e65eaeb	0.22452895
192	0x3edd54d2	0.43228775
193	0x3fd33b8e	1.650255
194	0x3fa8024c	1.3125701
195	0x3f8eaeb7	1.1147069
196	0x3f16d951	0.5892535
197	0x3ebf4432	0.37356716
198	0x3e94fa05	0.29097
199	0x3f373afd	0.71574384
200	0x3f1a3d3f	0.60249704
201	0x3eb748e8	0.3579781
202	0x3e25535f	0.16145085
203	0x3f14db35	0.58146983
204	0x3f096ae9	0.53678757
205	0x3f15050e	0.5821084
206	0x3ea525c1	0.32255366
207	0x3d8c33c4	0.06845811
208	0xbc71c3f7	-0.014756194
209	0x3e18acda	0.14909688
210	0x3f55b1b6	0.8347429
211	0x3f6e0166	0.92970884
212	0xbd9f29fa	-0.07771678
213	0x3e18a299	0.14905776
214	0x3e53d978	0.20688426
215	0x3eb10fea	0.34582454
216	0x3ea32a5a	0.3186825
217	0xbefd7f83	-0.49511346
218	0x3d91a460	0.0711143
219	0xbdc2d4de	-0.095132574
220	0xbf037b69	-0.51360184
221	0x3f971dde	1.180599
222	0xbd824179	-0.06360144
223	0x3e520179	0.20508374
224	0x3f20b6b6	0.62778795
225	0x3f69ac2e	0.9127835
226	0x3e433a27	0.19065152
227	0xbe533171	-0.20624329
228	0x3e8b2d87	0.27183172
229	0xbe078f80	-0.13238335
230	0x3e9b9228	0.30384946
231	0x3eaea4fe	0.34110254
232	0x3ce03a4f	0.027371554
233	0x3e2b49f3	0.16727428
234	0x3e33bff1	0.17553689
235	0x3e600da9	0.21880211
236	0x3e7d05ed	0.24709292
237	0x3dc4cde2	0.096095815
238	0x3e34951d	0.17635007
239	0x3ed785e4	0.42094338
240	0x3eb37d82	0.35056692
241	0xbd8dfbdb	-0.06932803
242	0x3e07c32d	0.13258047
243	0xbd091162	-0.033463843
244	0x3e1c5398	0.15266263
245	0xbd10b125	-0.03532519
246	0x3e116da9	0.14201988
247	0x3d765d76	0.060147725
248	0xbe8b99e8	-0.2726586
249	0xbe202f35	-0.15643008
250	0xbe2b65fc	-0.16738123
251	0x3e8ccbab	0.27499136
252	0xbe4d6ce9	-0.20061077
253	0x3fa48f70	1.2856274
254	0x3ecb4263	0.39699087
255	0x3e8817c0	0.2658062

fc1.bias f4 [32]
0	0x3da7d887	0.08195596
1	0x3dd03fa0	0.101683855
2	0x3e6084fe	0.21925732
3	0x3e55f644	0.20894724
4	0x3ea43fe3	0.32079992
5	0xbd11fb98	-0.03564033
6	0x3e5304f4	0.20607358
7	0x3c1bb9f3	0.009504783
8	0xbde5dc57	-0.11223667
9	0x3e0c9e77	0.13732325
10	0x3e843d20	0.25827885
11	0x3e12dc3e	0.14341828
12	0x3e77a625	0.24184473
13	0x3e6c8e8c	0.23101252
14	0xbc0c43d0	-0.00856109
15	0x3e85cca1	0.26132682
16	0x3dcffc78	0.101555765
17	0x3d966a26	0.07344465
18	0x3d944ad9	0.072408386
19	0xbdfe3e18	-0.12414187
20	0xbdb5e2af	-0.08881127
21	0x3d70a8de	0.058754794
22	0x3e87fb8d	0.26559106
23	0x3d57bee4	0.05267228
24	0x3e875eec	0.26439607
25	0x3e67e7d9	0.22647037
26	0xbd464c29	-0.048412476
27	0x3db9bde2	0.090694204
28	0x3eb286a1	0.3486834
29	0x3db903e6	0.09033947
30	0x3d8aa040	0.067688465
31	0x3e1ac864	0.15115505

fc2.weight f4 [1, 32]
0	0xbd870b97	-0.065940075
1	0xbde914a7	-0.11380892
2	0x3f24a74a	0.6431776
3	0x3f3c4769	0.73546463
4	0x3f433b38	0.76262236
5	0x3e190f2d	0.14947195
6	0x3f30bc88	0.69037676
7	0xbe05e465	-0.13075407
8	0xbd896d17	-0.0671026
9	0x3f33c098	0.7021575
10	0x3f282114	0.65675473
11	0x3f2de5ee	0.6792897
12	0x3f1c4439	0.610416
13	0x3f21641e	0.6304339
14	0xbe056c21	-0.13029529
15	0x3f255bc0	0.64593124
16	0xbdfa8e6c	-0.12234196
17	0x3d99f5ce	0.07517587
18	0xbce31eee	-0.02772471
19	0xbdf5ce5c	-0.120022506
20	0xbdfce132	-0.1234764
21	0xbe17bc1c	-0.14817852
22	0x3f29eaa7	0.66373676
23	0xbfe7cbea	-1.8109105
24	0x3f3af289	0.7302633
25	0x3f3e9d12	0.7445842
26	0xbe24e0fd	-0.16101451
27	0x3f483a4b	0.7821395
28	0x3f1b331f	0.6062488
29	0xbcef24cd	-0.029192353
30	0xbd003b7a	-0.03130672
31	0x3f2a3136	0.6648134
