nfl/NFL_model.pth (torch, 6112 bytes, 3 tensors)

fc1.weight f4 [16, 60]
00000000: f688 943d f007 b0bc 27c5 013e e83a 30bc
00000010: f6dd e23d 4990 ccbd a0b6 b73c 7eac c33d
00000020: b89b b3bd c018 443b ae1d e2bd 8867 57bc
00000030: 3adb e53d c85d eb3c dac8 b2bd ce8e e43d
00000040: a613 74bd aa43 d0bd 1051 4a3c 00f1 82bd
00000050: aefa c6bd 3eb2 a0bd 26ea afbd 0c9c 02be
00000060: 8c86 02be 9aaf 61bd 288a a23c 908c aa3c
00000070: f2e3 d3bd 3508 01be 8052 473d 403f 723d
00000080: e058 223d a49e d2bc 56fe 963d 29b9 01be
00000090: fc9c 8bbd 564f 5dbd e05d 6a3c 6505 f9bd
000000a0: f8bb 813d 9071 633c 6849 58bc 0cb3 b23d
000000b0: 40df eb3c 18a4 2cbd 2ea6 843d ca07 33bd
000000c0: ca81 21bd 54ba b6bd f4f5 adbd 6ac1 d3bd
000000d0: e472 b7bd 7f1d e8bd 9464 bc3d 5088 6d3d
000000e0: 2ae5 a0bd eb32 f5bd b043 af3c e000 b3bd
000000f0: 4fdb d53e a968 d43e 6e34 b53e f548 23be
00000100: e4b5 993d 1897 d33d 8025 483d 8d20 2abf
00000110: 5581 8c3e 4cba fa3d a1c8 b53e f123 203f
00000120: ecdf 27be 8652 0b3f 6412 1a3e 434c 993e
00000130: 5819 1c3e 0e92 89be 83dc be3c cdab 4b3e
00000140: 8e28 92bd 5e79 6e3d 19a3 4c3e 8f60 9e3e
00000150: b598 be3d f558 003f 60cf bb3e cd27 d83e
00000160: 703f b73e 480d e13e 05b6 e23d cd4c ec3e
00000170: 2f82 fc3d 0997 073e 5849 7ebc 5ce0 453e
00000180: a754 c83e 702a 283d 68af 253e a897 1c3e
00000190: 54a7 80bd 0ff6 a83d fa4c 21be 1e45 8d3e
000001a0: 88d5 c33d 5641 3a3e adbc 143e 0e56 68be
000001b0: de0f 10bd 8d66 643e 1d52 50bd 67f1 dc3e
000001c0: 5e02 c33e 0109 cd3e e7f4 b43e 9110 a63d
000001d0: 4457 2abd 1a4f e6bd 2fd8 543e 644c 863e
000001e0: b0ca e63c f77d 6b3c 1772 33bc a4f6 0cbd
000001f0: e4fd 6abd b8ee ebbc 50cb b33d 7ba3 ab3d
00000200: 4d84 13bd 3180 913d 641a d8bd f576 e3bd
00000210: 5ec0 c0bd e14e 0b3d a88d a43c 043e 09be
00000220: abf7 bebd 2147 8fbd d1d0 9d3d 1fb7 58bd
00000230: a191 433d ddd0 97bd d6a9 f1bc 305f 00be
00000240: c5e5 e7bd f798 d83c 0ed7 973d 0c0a c03d
00000250: d797 b33d a23f 0ebb 65ff 10bd f789 d5bc
00000260: 416a ea3d e0f6 7bbd f5e7 e13c 2eda 37bd
00000270: 41e0 8fbd 4660 50bc ecec c13d 5b4d a9bc
00000280: 3401 90bd 040d e7bd 3bcb 2abd 43dd e6bd
00000290: 0ac6 99bd b2b0 12bc aabb a2bd 7732 b6bc
000002a0: 3c46 e73c dc14 18bc c030 0a3c f508 8ebc
000002b0: 4e78 1abd fc24 d6bb de28 713c ae72 01bd
000002c0: 4329 ef3d 8892 873c d39a 213d d3c4 183c
000002d0: 849c ce3d 4ca4 49bd 2238 9b3d de06 a5bd
000002e0: 70c1 3c3d 3a7d fabd f89d f6bd f229 64bd
000002f0: 9469 fabd 0088 6db9 fe32 ae3d 9422 ebbc
00000300: d5bc afbd 849b 9a3d f022 1f3d d8f4 b93d
00000310: 00b4 62ba f8f6 79bc d2e3 9ebd 1caf a13d
00000320: 8306 85bd 04e0 83bc 16e3 a7bd d421 c5bd
00000330: 9a9d 4dbd e01f 9bbd f6f2 b7bd ac38 48bd
00000340: 2014 92bd 68a2 4e3d 0089 613a e2d1 953d
00000350: bcfc 3ebd 421f 9d3d 226e 9b3d a948 01be
00000360: 9c65 f2bc 64dd adbc ba23 e2bd d8d6 b5bc
00000370: da46 f23d 4e49 e9bd ac5f 69bd 34b2 82bd
00000380: 00b0 503c cec9 59bd 005c e53c 4ec7 f6bd
00000390: aa05 25bd fa18 d1bd 7aa6 6cbd a2a7 12bd
000003a0: 58cb 173d d01c ce3d f007 113d 29f8 a5bd
000003b0: dc6f 483d 4c1e c63d 74d7 1bbd 6cba 4f3d
000003c0: 190b e0ba 522f 35bd 4a8b c53d 29c3 a7bd
000003d0: 597a 9ebd c41c 3abd e592 ce3d 51d2 38bc
000003e0: b595 f0bc 1f8e f6bc 1efa e0bc 3e52 ea3d
000003f0: f4cc 7ebd 4823 1d3d 20f3 d03d a76f 463d
0.07252686 -0.02148816 0.12672864 -0.010756232 0.11077492 -0.09988458 0.02242595 0.09554385
-0.08769935 0.0029921979 -0.11040817 -0.013147242 0.11223455 0.028731242 -0.08729716 0.1116005
-0.05958905 -0.10169156 0.012348428 -0.06393623 -0.09715782 -0.07846497 -0.08589582 -0.1275484
-0.12746638 -0.055099107 0.019841269 0.020818979 -0.103462115 -0.12600787 0.048662663 0.05914235
0.03963554 -0.025710411 0.073727295 -0.12668289 -0.06817052 -0.05403074 0.014304608 -0.12159232
0.0633468 0.013882056 -0.013201095 0.08725557 0.028792977 -0.04214868 0.06477009 -0.0437086
-0.039430417 -0.08922258 -0.084941775 -0.10339625 -0.089574605 -0.11333751 0.09198871 0.057991326
-0.078562096 -0.119726025 0.02139458 -0.08740401 0.41768882 0.414861 0.35391563 -0.159458
0.07505396 0.10331553 0.048863888 -0.6645592 0.27442423 0.122425646 0.3550463 0.6255484
-0.16394013 0.54422796 0.15046078 0.29940996 0.15244043 -0.26869243 0.023298508 0.19889756
-0.071366414 0.058221214 0.19984092 0.30933043 0.0930647 0.5013574 0.36681652 0.42217866
0.35790586 0.43955445 0.11069874 0.46152344 0.12329518 0.13241209 -0.015520416 0.19323868
0.39127085 0.041056097 0.16180193 0.15292227 -0.06281915 0.08250057 -0.1575202 0.27591795
0.09562212 0.18188986 0.14525099 -0.22689077 -0.035171382 0.22304745 -0.05085956 0.43152925
0.38087744 0.40045932 0.35343096 0.081086285 -0.04158713 -0.11245556 0.20785592 0.26230156
0.02817282 0.014373294 -0.010952494 -0.034414902 -0.057371035 -0.028800353 0.08779013 0.08380791
-0.036014844 0.07104529 -0.105519086 -0.11106674 -0.09411691 0.03401077 0.020087078 -0.13402563
-0.09324583 -0.06995989 0.07705844 -0.052909013 0.047746304 -0.074128844 -0.02949993 -0.12536311
-0.11323122 0.026440127 0.07414065 0.09376916 0.087691955 -0.0021705409 -0.035399813 -0.026066763
0.114460476 -0.061514735 0.027576426 -0.044885807 -0.07025195 -0.012718266 0.094690174 -0.020666769
-0.070314795 -0.112817794 -0.041697722 -0.11272671 -0.07508476 -0.00895326 -0.0794595 -0.02224086
0.028231733 -0.009282317 0.0084344745 -0.017338255 -0.037712388 -0.0065351706 0.014719216 -0.031603508
0.11677792 0.016549364 0.039454293 0.00932427 0.10088447 -0.04922895 0.07579066 -0.080579504
0.046082914 -0.12230916 -0.12041849 -0.055704065 -0.12227169 -0.00022652745 0.0850582 -0.028703012
-0.08580939 0.075491935 0.03885168 0.09079903 -0.0008648038 -0.015256636 -0.07758297 0.078947276
-0.06495383 -0.01609803 -0.0819761 -0.09625593 -0.05019913 -0.07574439 -0.08981888 -0.04888217
-0.07132745 0.05044785 0.00086034834 0.073154226 -0.046627745 0.076719776 0.075893655 -0.12625374
-0.029589467 -0.021223731 -0.110419706 -0.022197172 0.1182992 -0.11390935 -0.056976005 -0.06381646
0.012737274 -0.05317097 0.02799797 -0.12049733 -0.040288605 -0.10209842 -0.057775952 -0.0358044
0.037059158 0.10064089 0.03540796 -0.081039734 0.048934802 0.096737474 -0.03804727 0.050714895
-0.0017093151 -0.04423458 0.09645708 -0.08191521 -0.0773818 -0.04543759 0.10086612 -0.011280612
-0.02936826 -0.030097065 -0.027463015 0.11441468 -0.062207177 0.038363725 0.102026224 0.048446324

fc1.bias f4 [16]
00000000: de25 68bd 18b5 9a3e 0c54 04bc 94b6 e5bd
00000010: c767 873d 2858 823e 514d b53e b11b 883e
00000020: 784d 0abe ebc3 eebd 09c6 ce3e 927c e1bd
00000030: 0cad c03e c775 1e3e 9746 943e 6808 943e
-0.056676738 0.3021629 -0.008076679 -0.11216465 0.06611591 0.25457883 0.3541055 0.26583627
-0.13506114 -0.11658462 0.40385464 -0.11010088 0.37632024 0.15474616 0.28960106 0.28912663

fc2.weight f4 [1, 16]
00000000: dca7 69be c585 e33e 280f fbbd 0402 dc3d
00000010: 410e 59bd 5292 b63e 842a 003f b047 0c3f
00000020: cd12 6cbe 7428 09be f97c bf3e 1bc8 a5bd
00000030: 06c6 bd3e 224e 093f e407 b53e 5422 c73e
-0.2281794 0.44437996 -0.1225875 0.10742572 -0.05299211 0.3565851 0.50064874 0.54796886
-0.23054047 -0.13394338 0.37400034 -0.08094808 0.37065142 0.53634846 0.35357583 0.38893378
